…
[2021-11-20 21:04:08,635: INFO: 01_base_model_creation]: >>>>> stage STAGE_NAME completed!<<<<<

[2021-11-20 21:17:16,820: INFO: 02_transfer_learning]: 
********************
[2021-11-20 21:17:16,820: INFO: 02_transfer_learning]: >>>>> stage STAGE_NAME started <<<<<
[2021-11-20 21:17:16,822: INFO: common]: yaml file: configs/config.yaml loaded successfully
[2021-11-20 21:17:18,620: INFO: 02_transfer_learning]: base model summary: 
Model: "sequential"
_________________________________________________________________
Layer (type)                 Output Shape              Param #   
=================================================================
inputLayer (Flatten)         (None, 784)               0         
_________________________________________________________________
hiddenLayer1 (Dense)         (None, 300)               235500    
_________________________________________________________________
leaky_re_lu (LeakyReLU)      (None, 300)               0         
_________________________________________________________________
hiddenLayer2 (Dense)         (None, 100)               30100     
_________________________________________________________________
leaky_re_lu_1 (LeakyReLU)    (None, 100)               0         
_________________________________________________________________
outputLayer (Dense)          (None, 10)                1010      
=================================================================
Total params: 266,610
Trainable params: 266,610
Non-trainable params: 0
_________________________________________________________________

[2021-11-20 21:18:11,895: INFO: common]: created directory at: artifacts\models
[2021-11-20 21:18:12,029: INFO: 02_transfer_learning]: >>>>> stage STAGE_NAME completed!<<<<<

[2021-11-20 21:18:37,056: INFO: 01_base_model_creation]: 
…
[2021-11-21 16:34:07,777: INFO: 02_transfer_learning_even_odd]: 
********************
[2021-11-21 16:34:07,777: INFO: 02_transfer_learning_even_odd]: >>>>> stage transfer learning started <<<<<
[2021-11-21 16:34:07,781: INFO: common]: yaml file: configs/config.yaml loaded successfully
[2021-11-21 16:34:09,063: INFO: 02_transfer_learning_even_odd]: loaded base model summary: 
Model: "sequential"
_________________________________________________________________
Layer (type)                 Output Shape              Param #   
=================================================================
inputLayer (Flatten)         (None, 784)               0         
_________________________________________________________________
hiddenLayer1 (Dense)         (None, 300)               235500    
_________________________________________________________________
leaky_re_lu (LeakyReLU)      (None, 300)               0         
_________________________________________________________________
hiddenLayer2 (Dense)         (None, 100)               30100     
_________________________________________________________________
leaky_re_lu_1 (LeakyReLU)    (None, 100)               0         
_________________________________________________________________
outputLayer (Dense)          (None, 10)                1010      
=================================================================
Total params: 266,610
Trainable params: 266,610
Non-trainable params: 0
_________________________________________________________________

[2021-11-21 16:34:10,247: INFO: 02_transfer_learning_even_odd]: base model evaluation metrics: 
[9.979148864746094, 0.005900000222027302]
[2021-11-21 16:34:10,295: INFO: 02_transfer_learning_even_odd]: transfer learning: model summary: 
Model: "sequential"
_________________________________________________________________
Layer (type)                 Output Shape              Param #   
=================================================================
inputLayer (Flatten)         (None, 784)               0         
_________________________________________________________________
hiddenLayer1 (Dense)         (None, 300)               235500    
_________________________________________________________________
leaky_re_lu (LeakyReLU)      (None, 300)               0         
_________________________________________________________________
hiddenLayer2 (Dense)         (None, 100)               30100     
_________________________________________________________________
leaky_re_lu_1 (LeakyReLU)    (None, 100)               0         
_________________________________________________________________
output_layer (Dense)         (None, 2)                 202       
=================================================================
Total params: 265,802
Trainable params: 202
Non-trainable params: 265,600
_________________________________________________________________

[2021-11-21 16:34:10,301: INFO: 02_transfer_learning_even_odd]: transfer model summary: 
Model: "sequential"
_________________________________________________________________
Layer (type)                 Output Shape              Param #   
=================================================================
inputLayer (Flatten)         (None, 784)               0         
_________________________________________________________________
hiddenLayer1 (Dense)         (None, 300)               235500    
_________________________________________________________________
leaky_re_lu (LeakyReLU)      (None, 300)               0         
_________________________________________________________________
hiddenLayer2 (Dense)         (None, 100)               30100     
_________________________________________________________________
leaky_re_lu_1 (LeakyReLU)    (None, 100)               0         
_________________________________________________________________
output_layer (Dense)         (None, 2)                 202       
=================================================================
Total params: 265,802
Trainable params: 202
Non-trainable params: 265,600
_________________________________________________________________

[2021-11-21 16:34:38,222: INFO: common]: created directory at: artifacts\models
[2021-11-21 16:34:38,315: INFO: 02_transfer_learning_even_odd]: >>>>> stage transfer learning completed!<<<<<
…
