[2021-11-20 19:26:55,022: INFO: 01_base_model_creation]: 
********************
[2021-11-20 19:26:55,022: INFO: 01_base_model_creation]: >>>>> stage creating base model started <<<<<
[2021-11-20 19:26:55,023: INFO: common]: yaml file: configs/config.yaml loaded successfully
[2021-11-20 19:26:55,905: INFO: 01_base_model_creation]: base model summary: 
Model: "sequential"
_________________________________________________________________
 Layer (type)                Output Shape              Param #   
=================================================================
 inputlayer (Flatten)        (None, 784)               0         
                                                                 
 hiddenlayer1 (Dense)        (None, 300)               235500    
                                                                 
 leaky_re_lu (LeakyReLU)     (None, 300)               0         
                                                                 
 hiddenlayer2 (Dense)        (None, 100)               30100     
                                                                 
 leaky_re_lu_1 (LeakyReLU)   (None, 100)               0         
                                                                 
 outputlayer (Dense)         (None, 10)                1010      
                                                                 
=================================================================
Total params: 266,610
Trainable params: 266,610
Non-trainable params: 0
_________________________________________________________________

[2021-11-20 19:27:25,378: INFO: common]: created directory at: artifacts\models
[2021-11-20 19:27:25,444: INFO: 01_base_model_creation]: base model is saved at artifacts\models\base_model.h5
…
[2021-11-20 19:27:46,877: INFO: 02_transfer_learning_even_odd]: 
********************
[2021-11-20 19:27:46,878: INFO: 02_transfer_learning_even_odd]: >>>>> stage transfer learning started <<<<<
[2021-11-20 19:27:46,878: INFO: common]: yaml file: configs/config.yaml loaded successfully
[2021-11-20 19:27:47,776: INFO: 02_transfer_learning_even_odd]: loaded base model summary: 
Model: "sequential"
_________________________________________________________________
 Layer (type)                Output Shape              Param #   
=================================================================
 inputlayer (Flatten)        (None, 784)               0         
                                                                 
 hiddenlayer1 (Dense)        (None, 300)               235500    
                                                                 
 leaky_re_lu (LeakyReLU)     (None, 300)               0         
                                                                 
 hiddenlayer2 (Dense)        (None, 100)               30100     
                                                                 
 leaky_re_lu_1 (LeakyReLU)   (None, 100)               0         
                                                                 
 outputlayer (Dense)         (None, 10)                1010      
                                                                 
=================================================================
Total params: 266,610
Trainable params: 266,610
Non-trainable params: 0
_________________________________________________________________

[2021-11-20 19:27:49,051: INFO: 02_transfer_learning_even_odd]: base model evaluation metrics [0.31626543402671814, 0.9093000292778015]
[2021-11-20 19:27:49,078: INFO: 02_transfer_learning_even_odd]: transfer learning model summary: 
Model: "sequential"
_________________________________________________________________
 Layer (type)                Output Shape              Param #   
=================================================================
 inputlayer (Flatten)        (None, 784)               0         
                                                                 
 hiddenlayer1 (Dense)        (None, 300)               235500    
                                                                 
 leaky_re_lu (LeakyReLU)     (None, 300)               0         
                                                                 
 hiddenlayer2 (Dense)        (None, 100)               30100     
                                                                 
 leaky_re_lu_1 (LeakyReLU)   (None, 100)               0         
                                                                 
 output_layer (Dense)        (None, 2)                 202       
                                                                 
=================================================================
Total params: 265,802
Trainable params: 202
Non-trainable params: 265,600
_________________________________________________________________

[2021-11-20 19:28:12,640: INFO: 02_transfer_learning_even_odd]: base model is saved at artifacts\models\even_odd_model.h5
…
[2021-11-20 19:31:31,747: INFO: 01.01_base_model_creation_bin]: 
********************
[2021-11-20 19:31:31,747: INFO: 01.01_base_model_creation_bin]: >>>>> stage creating binary model from scratch started <<<<<
[2021-11-20 19:31:31,748: INFO: common]: yaml file: configs/config.yaml loaded successfully
[2021-11-20 19:31:32,775: INFO: 01.01_base_model_creation_bin]: bin_scratch_model summary: 
Model: "sequential"
_________________________________________________________________
 Layer (type)                Output Shape              Param #   
=================================================================
 inputlayer (Flatten)        (None, 784)               0         
                                                                 
 hiddenlayer1 (Dense)        (None, 300)               235500    
                                                                 
 leaky_re_lu (LeakyReLU)     (None, 300)               0         
                                                                 
 hiddenlayer2 (Dense)        (None, 100)               30100     
                                                                 
 leaky_re_lu_1 (LeakyReLU)   (None, 100)               0         
                                                                 
 outputlayer (Dense)         (None, 2)                 202       
                                                                 
=================================================================
Total params: 265,802
Trainable params: 265,802
Non-trainable params: 0
_________________________________________________________________

[2021-11-20 19:32:07,870: INFO: common]: created directory at: artifacts\models
[2021-11-20 19:32:07,891: INFO: 01.01_base_model_creation_bin]: bin_scratch_model is saved at artifacts\models\bin_scratch_model.h5
…
